test/fixtures/basic_model.pt (torch, 5061 bytes, 4 tensors)

net.0.weight f4 [16, 3, 3, 3]
0	0x3d9853b4	0.0743784
1	0xbd891cb8	-0.06694931
2	0xbd4b065f	-0.049566623
3	0x3c2beb38	0.010493092
4	0xbdfa74da	-0.12229319
5	0x3da2d392	0.0795051
6	0x3e18256a	0.14858022
7	0xbe0f2fe7	-0.13983117
8	0x3b6b4f93	0.0035905584
9	0xbd948246	-0.0725141
10	0xbc8a9785	-0.016917953
11	0xbe2a39e3	-0.16623645
12	0xbdc819ae	-0.09770523
13	0x3d7aabee	0.06119912
14	0xbe0c5b92	-0.13706806
15	0x3df9dea5	0.12200669
16	0x3e31f2ed	0.17377825
17	0xbd784c95	-0.06061991
18	0x3dc924dc	0.098214835
19	0xbd648e1f	-0.0557996
20	0x3d6cb556	0.057790123
21	0x3dd556ee	0.10416971
22	0xbe16654b	-0.14687078
23	0xbd9b6f83	-0.075896285
24	0xbdcff295	-0.10153691
25	0x3dca854c	0.098887056
26	0xbdd4192c	-0.10356364
27	0x3e04de6e	0.12975475
28	0x3dfa4d38	0.122217596
29	0xbd2829b7	-0.041055407
30	0xbd9c40bd	-0.07629535
31	0xbe0639fb	-0.13108055
32	0x3dfb90d3	0.122834824
33	0x3cd13841	0.02553952
34	0x3e42d547	0.19026671
35	0x3c0a1131	0.00842695
36	0xbd27db9b	-0.040980916
37	0xbe3c7908	-0.18405545
38	0xbc7281b5	-0.014801432
39	0x3e238277	0.15967737
40	0x3e3aec14	0.18254119
41	0xbdf8504f	-0.12124693
42	0xbd9772e0	-0.073949575
43	0x3dfbf4e0	0.123025656
44	0x3e10ad58	0.14128625
45	0xbda7c97a	-0.081927255
46	0xbe390d29	-0.18071426
47	0xbdd065fb	-0.10175701
48	0xbd4fa3eb	-0.050693434
49	0xbd002d26	-0.031293057
50	0xbe0c3a75	-0.13694175
51	0xbe10d9f7	-0.14145647
52	0xbdadae84	-0.08480552
53	0x3e15fd92	0.1464751
54	0xbe151541	-0.14558889
55	0xbe258ccd	-0.16166992
56	0xbe247f18	-0.16064107
57	0x3d986ded	0.07442842
58	0x3df666b8	0.12031311
59	0xbd72423f	-0.05914521
60	0x3e075d52	0.13219193
61	0x3e13c206	0.14429483
62	0x3e0c80fa	0.13721076
63	0x3d293a27	0.041315224
64	0xbdc423d4	-0.09577146
65	0x3db88b40	0.09010935
66	0xbc0f7abc	-0.0087572895
67	0x3ca6ead9	0.020375656
68	0x3c818f54	0.015815414
69	0xbe04e83d	-0.12979217
70	0xbe271d37	-0.16319738
71	0xbd7b2327	-0.06131282
72	0x3e099dd6	0.13439116
73	0xbe22ece2	-0.15910676
74	0x3db7f22e	0.08981739
75	0xbe2cfce7	-0.1689335
76	0x3d968443	0.07349446
77	0x3ddfff74	0.10937396
78	0x3e1fa939	0.15591897
79	0xbe38b279	-0.18036832
80	0xbd337469	-0.04381219
81	0x3d61405a	0.05499301
82	0xbddaa000	-0.10675049
83	0x3d819be6	0.063285634
84	0xbd6040b4	-0.054749206
85	0x3e35750b	0.1772043
86	0xbcd6ff9f	-0.026244937
87	0xbd272f2b	-0.040816467
88	0xbd372d79	-0.0447211
89	0x3d0f5b26	0.034999035
90	0xbe044c9b	-0.12919848
91	0x3d2d8be0	0.042369723
92	0xbe37da1d	-0.17954297
93	0xbe13701a	-0.14398232
94	0xbc5052e7	-0.012715078
95	0x3dc7c482	0.09754278
96	0x3e3486c3	0.17629533
97	0x3dd38ab9	0.103291936
98	0x3dbc80f8	0.09204286
99	0x3cb3605f	0.02189654
100	0x3e012ea7	0.12615453
101	0xbe3c9a53	-0.18418245
102	0xbe08f9f5	-0.13376601
103	0xbe145cc7	-0.14488517
104	0x3e23ac1c	0.15983623
105	0x3d0c255d	0.03421532
106	0x3d5e27f6	0.05423733
107	0xbe035955	-0.12827046
108	0xbd9186b8	-0.07105774
109	0x3dd44b16	0.10365884
110	0xbdcf71c6	-0.101291224
111	0xbc84273c	-0.01613199
112	0x3db9cb52	0.090719834
113	0xbd8f8773	-0.07008257
114	0x3e1764d8	0.14784563
115	0x3dfb4158	0.12268323
116	0xbdbf8f50	-0.093535066
117	0x3d8eb1db	0.06967517
118	0xbdeb1966	-0.11479454
119	0x3e32acff	0.17448805
120	0xbd3e84ad	-0.04651325
121	0xbe3ff643	-0.18746285
122	0xbd9c9f70	-0.07647598
123	0xbe022ab6	-0.12711605
124	0xbcfb0ffb	-0.030647269
125	0x3d727087	0.059189346
126	0x3d4a5f65	0.04940738
127	0xbe44e7b2	-0.1922901
128	0x3c0f083a	0.008729989
129	0xbe18b2de	-0.14911982
130	0xbda6fd78	-0.08153814
131	0x3d37d8cd	0.04488449
132	0xbe0cd62f	-0.1375358
133	0xbe299d45	-0.165639
134	0x3e3e006d	0.1855485
135	0x3e2048a8	0.15652716
136	0x3d2a4a84	0.04157497
137	0xbd208a83	-0.039194595
138	0xbe0c5248	-0.13703263
139	0x3ba843e9	0.0051350486
140	0xbcfe2731	-0.031024547
141	0x3e16d01c	0.14727825
142	0x3e319156	0.17340598
143	0xbbeb2a9f	-0.0071767117
144	0xbdc0c317	-0.094122104
145	0x3d4c686e	0.04990428
146	0x3d60ff3b	0.054930907
147	0x3dc63863	0.09678724
148	0xbd478fd9	-0.04872117
149	0xbe382112	-0.17981365
150	0xbe10777c	-0.1410808
151	0xbdf2dd2b	-0.11858591
152	0x3dbfd15c	0.09366104
153	0xbe2fa852	-0.17154053
154	0x3de52444	0.11188558
155	0xbe2d2f9e	-0.16912696
156	0xbdee6afe	-0.11641501
157	0xbde247e3	-0.110488676
158	0xbdcce36e	-0.10004316
159	0x3e3a1bcb	0.18174665
160	0x3cf0ec43	0.029409533
161	0x3c049efd	0.008094546
162	0x3dd18e67	0.10232239
163	0xbe409ac7	-0.18809043
164	0xbc63263d	-0.013864097
165	0xbd01ba5e	-0.031671874
166	0x3e4333e7	0.19062768
167	0x3e1cd9cc	0.15317458
168	0x3c698886	0.014253741
169	0xbdf535a6	-0.11973123
170	0x3e334ace	0.17509004
171	0x3e15d427	0.14631711
172	0xbe075efd	-0.13219829
173	0xbd7e3730	-0.06206435
174	0xbe3d23f9	-0.18470754
175	0x3e1efd5e	0.1552634
176	0xbd9d5ff9	-0.07684321
177	0xbd876427	-0.066108994
178	0x3d36f89f	0.044670697
179	0x3d83839b	0.06421586
180	0x3d157f5f	0.036498424
181	0x3e012f01	0.12615587
182	0xbc0ba979	-0.008524292
183	0x3e15568b	0.14583795
184	0x3d1bdee4	0.038054362
185	0x3b08f990	0.0020900704
186	0xbd17d0d7	-0.0370644
187	0x3dede9f5	0.116168894
188	0xbddc2e34	-0.10751
189	0x3de0c858	0.109757125
190	0xbde07902	-0.109605804
191	0x3e3a2732	0.18179014
192	0x3cc23044	0.023704655
193	0xbd8c8a70	-0.06862342
194	0x3e09fe50	0.13475919
195	0x3df9b59b	0.121928416
196	0x3da30773	0.07960405
197	0xbe0526de	-0.13003108
198	0xbd52ac62	-0.05143393
199	0x3d4d44ee	0.050114565
200	0xbe1fcc81	-0.15605356
201	0x3de1d8e4	0.11027697
202	0x3e1b0a0a	0.15140548
203	0x3bf24329	0.00739326
204	0x3cb3519a	0.021889497
205	0xbd129b5a	-0.035792686
206	0x3d3bcdfa	0.04585073
207	0xbccbd4f7	-0.024881823
208	0xbe3588ef	-0.17728017
209	0xbd2ea035	-0.042633254
210	0xbd628fb2	-0.05531282
211	0xbdad51be	-0.08462857
212	0xbd3b9afb	-0.045802098
213	0x3c9bb969	0.019009309
214	0xba40aaa6	-0.00073496473
215	0x3d863471	0.06552971
216	0x3d5ea64e	0.05435782
217	0x3e109614	0.1411975
218	0x3cde7c16	0.027158778
219	0xbdaf1e06	-0.085506484
220	0x3bf5ba29	0.0074989987
221	0x3c166450	0.00917919
222	0x3da02ea1	0.07821394
223	0xbdde695f	-0.10859942
224	0xbcc164cc	-0.023607634
225	0xbcb76613	-0.02238754
226	0xbcc81865	-0.024425695
227	0x3dc2e036	0.09515421
228	0x3e03cd03	0.12871175
229	0x3c7ee10c	0.015556585
230	0x3e3a3a00	0.18186188
231	0xbd9831d2	-0.074313775
232	0x3a3feed1	0.0007321658
233	0x3d9657c5	0.073409595
234	0xbd28085f	-0.04102361
235	0xbe3c1640	-0.18367863
236	0xbdf50a77	-0.11964887
237	0xbd56bb9d	-0.052425016
238	0xbc1a8a10	-0.009432331
239	0xbcb4ef52	-0.022086773
240	0xbd481223	-0.04884542
241	0x3cbd889d	0.023136431
242	0x3ce649ab	0.0281113
243	0xbd9d71c3	-0.07687714
244	0xbdf8347a	-0.12119384
245	0x3d740559	0.059575412
246	0x3e42229a	0.18958512
247	0x3e19b6dc	0.15011162
248	0x3e424bb0	0.18974185
249	0x3e41f93f	0.18942736
250	0xbe268d42	-0.16264823
251	0xbe00812c	-0.12549275
252	0x3d964fd8	0.07339448
253	0xbc974948	-0.01846756
254	0x3d743f97	0.059630957
255	0x3e422a1b	0.18961374

net.0.bias f4 [16]
0	0x3d80238a	0.062567785
1	0xbe1ad132	-0.15118864
2	0xbe24fd9e	-0.16112372
3	0x3e0664cc	0.13124388
4	0xbd2380a5	-0.039917607
5	0xbc194096	-0.009353777
6	0xbb0c8a8b	-0.0021444883
7	0xbe385c68	-0.18004
8	0x3dcbd121	0.099519975
9	0xbe04fbbc	-0.12986654
10	0xbe37c129	-0.17944779
11	0x3d1b265b	0.037878376
12	0x3e44f106	0.19232568
13	0xbe31746c	-0.17329568
14	0x3d6fdf87	0.05856278
15	0xbd514f3b	-0.05110095

net.4.weight f4 [10, 16]
0	0x3e2b1bb6	0.1670979
1	0x3d230a88	0.039804965
2	0x3e721600	0.23641205
3	0x3e067cd2	0.13133553
4	0x3d8d7470	0.06906974
5	0xba083c00	-0.0005196929
6	0xbdfd40c4	-0.12365869
7	0x3de9248c	0.11383924
8	0xbdd2fd1c	-0.10302183
9	0xbe4a8cd0	-0.19780278
10	0x3d366d90	0.04453808
11	0xbcaaa840	-0.020832181
12	0x3e6ecc26	0.23320064
13	0xbd0dbd20	-0.03460419
14	0xbe504148	-0.20337403
15	0xbdaf0700	-0.08546257
16	0x3e1fb086	0.15594682
17	0x3c86b130	0.016441911
18	0xbaff8200	-0.0019493699
19	0x3c8c85a0	0.017153561
20	0x3e727c58	0.23680246
21	0x3d50a110	0.05093485
22	0x3e2f9c68	0.17149508
23	0x3d285b18	0.0411025
24	0xbd8ac1e8	-0.06775266
25	0x3e0e0828	0.13870299
26	0xbe2656da	-0.16244069
27	0xbddf0158	-0.10888928
28	0x3d562e18	0.052290052
29	0xbe35bc4c	-0.17747611
30	0x3e3f7322	0.18696263
31	0x3e4aa1b2	0.19788244
32	0x3e5f0e58	0.21782815
33	0xbe088bf4	-0.13334638
34	0x3e6a8cee	0.22905323
35	0x3dea4a54	0.11439958
36	0x3e49fa02	0.19724277
37	0xbdfd3948	-0.12364441
38	0xbe5f994c	-0.21835822
39	0xbd995f80	-0.07488918
40	0xbe19f006	-0.15032968
41	0x3e45ca68	0.19315493
42	0x3df83b44	0.12120679
43	0xbe17f950	-0.14841199
44	0x3e441ea4	0.19152313
45	0x3df46bf8	0.11934656
46	0xbaada500	-0.0013248026
47	0x3cc8e890	0.024524957
48	0x3db42768	0.08796579
49	0xbe6df4ce	-0.23237917
50	0x3de63d1c	0.112421244
51	0x3e1ffa06	0.1562272
52	0x3d5e3d60	0.05425775
53	0x3df5a6fc	0.1199474
54	0x3df2dabc	0.118581265
55	0x3cb393b0	0.021921009
56	0xbe4f9302	-0.20270923
57	0xbd853a0c	-0.06505212
58	0xbcd964e0	-0.026537359
59	0x3db36cd8	0.08760995
60	0x3d93aad8	0.0721032
61	0xbcede730	-0.029040903
62	0xbd70bc18	-0.05877313
63	0xbdb6a6d4	-0.08918539
64	0xbddc2258	-0.10748738
65	0xbd087648	-0.033315927
66	0xbd225888	-0.03963521
67	0x3e3af80a	0.18258682
68	0x3e22fad2	0.15915993
69	0xbd7ca748	-0.06168297
70	0xbdb39c00	-0.08769989
71	0x3d3ffcd8	0.04687199
72	0x3d4ee670	0.05051273
73	0xbc900c80	-0.017584085
74	0x3e0c7ab2	0.1371868
75	0xbe032d24	-0.12810189
76	0x3e74396e	0.23850033
77	0xbe41dcda	-0.18931904
78	0x3e010494	0.12599403
79	0x3db41f78	0.08795065
80	0xba758400	-0.0009365678
81	0xbd21ce60	-0.039503455
82	0x3e673136	0.22577366
83	0xbe7894a4	-0.24275452
84	0x3d4daca0	0.050213456
85	0xbdf49c4c	-0.11943874
86	0x3e46fa0e	0.19431326
87	0x3e4f7dcc	0.20262831
88	0xbe52b4ac	-0.20576733
89	0xbe2b83fe	-0.1674957
90	0xbe2be562	-0.16786721
91	0x3e3da8c0	0.18521404
92	0x3dba3454	0.09092012
93	0xbe1edacc	-0.15513152
94	0xbdac9384	-0.08426574
95	0xbe2519d6	-0.16123137
96	0x3d0f7200	0.03502083
97	0x3e73fcfc	0.23826975
98	0x3e61c6cc	0.22048491
99	0x3e372278	0.17884243
100	0xbde2f8a0	-0.11082578
101	0x3e77ba3e	0.2419214
102	0xbd68d948	-0.05684784
103	0x3e5e870e	0.21731207
104	0x3d3b5ba0	0.045741677
105	0xbe71533a	-0.23566905
106	0xbe20565e	-0.15657946
107	0x3dc3c7c4	0.09559587
108	0x3d5206a8	0.05127588
109	0xbda2f488	-0.07956797
110	0x3e504b6c	0.20341271
111	0xbe50bb8e	-0.20384046
112	0xbe042c36	-0.1290749
113	0xbe42ccde	-0.19023463
114	0xbe449ec8	-0.19201195
115	0xbde2781c	-0.11058065
116	0xbd753760	-0.059867263
117	0xbd9eb964	-0.07750204
118	0xbe40f754	-0.18844348
119	0x3ca406e0	0.02002281
120	0x3d352d00	0.04423237
121	0xbe144b7a	-0.14481917
122	0xbbcb6680	-0.0062072873
123	0x3d1fbe78	0.039000005
124	0xbd4f1498	-0.05055675
125	0xbd457300	-0.048205376
126	0x3e1f8434	0.15577775
127	0x3e3c9ff0	0.18420386
128	0x3e399f8a	0.18127266
129	0x3e172afe	0.14762494
130	0xbe69558e	-0.22786543
131	0x3e17680a	0.14785782
132	0x3dd07acc	0.10179672
133	0xbe15e462	-0.14637902
134	0xbe770394	-0.24122459
135	0xbdba4530	-0.09095228
136	0x3e29ba3a	0.16574946
137	0xbe73bb10	-0.23801827
138	0xbd2d0d08	-0.042248756
139	0x3e2196f6	0.15780243
140	0xbd861438	-0.06546825
141	0xbe54559c	-0.20735782
142	0xbe2679e0	-0.16257429
143	0xbe785382	-0.24250606
144	0x3d21e120	0.039521337
145	0xbca0d890	-0.019634515
146	0x3ddbaea4	0.107266694
147	0x3e0cb182	0.13739589
148	0x3d864404	0.06555942
149	0xbd9053ec	-0.07047257
150	0x3e06fae6	0.13181648
151	0x3e78212a	0.24231401
152	0xb9b66400	-0.0003478825
153	0x3df05f44	0.117369205
154	0x3e77f970	0.24216247
155	0xbdcc6744	-0.09980634
156	0xbe28b48c	-0.16475123
157	0x3e4391f8	0.19098651
158	0x3e4801a6	0.19531879
159	0xbe5cfd66	-0.21581039

net.4.bias f4 [10]
0	0x3e4a53f0	0.19758582
1	0x3e58f710	0.21187997
2	0xbdb83ebc	-0.08996341
3	0xbe2f9372	-0.1714609
4	0x3b0ed080	0.0021791756
5	0x3e28bd5c	0.16478485
6	0xbe6aebd6	-0.22941527
7	0x3ca580e0	0.020203054
8	0xbe7afd7e	-0.24510762
9	0xbc8308e0	-0.015995443
